Proyek capstone/capstone/tflite/model.tflite (tflite, 946240 bytes, 11 tensors)

arith.constant f4 [256]
000000 6f 37 14 bc b8 5c 2e bc 9a 6d 29 3c 3e fd 15 bc
       -0.0090464195 -0.010642223 0.010341072 -0.009154616
000010 f9 6f 9c bb 0f 61 3f bc 90 f3 eb 3b 80 79 ad bb
       -0.0047740904 -0.011680855 0.007200666 -0.005294025
000020 18 6b ea 3c 51 29 62 bc 3f 56 a8 3b 75 ef 4d bc
       0.02861552 -0.013803796 0.0051372345 -0.012569298
000030 2d f2 f7 ba 15 68 87 bc 8a 65 56 bc 87 ad 15 3b
       -0.0018916778 -0.016529122 -0.013085732 0.0022839026
000040 9b 76 6d bb 96 83 82 bb 9c 67 1b bc 89 73 18 bc
       -0.0036234024 -0.0039829714 -0.009485152 -0.0093048895
000050 12 d8 1a 3c 5f cc 01 bb fc 09 47 3c 13 26 95 3b
       0.009450929 -0.0019805653 0.012148377 0.004551658
000060 f0 90 8d 38 1f 83 5d b9 4c 8f a4 3b bc 78 26 3c
       6.750401e-05 -0.00021125049 0.005021965 0.010160621
000070 9d 95 a7 bb 65 b2 bf bb da 8d 17 bc d6 dc e3 3b
       -0.005114271 -0.0058501237 -0.009250129 0.006953816
000080 fb 1d 48 3b 92 ad c4 bb e5 c5 0e ba 40 22 2b bb
       0.0030535448 -0.0060021365 -0.00054463587 -0.0026112944
000090 7c 85 3d bc 54 34 cc bb 0e e0 ca bb 63 fa 8e 3b
       -0.01156747 -0.006231824 -0.00619126 0.0043633445
0000a0 ce 8f 3d bb 09 4b 0e bc 5a ce a2 bb 23 76 52 3c
       -0.0028924826 -0.008684882 -0.0049684467 0.012845549
0000b0 46 7e c7 3b 2f 99 05 3c f9 7a 27 3a 3e 2a 07 3c
       0.006088051 0.008154198 0.0006388869 0.008249817
0000c0 d3 42 74 bc dd 7e 0e bc e9 3f 1e ba ca 53 88 bb
       -0.01490851 -0.008697239 -0.0006036745 -0.004160379
0000d0 61 65 fc 3b 09 3e 3e 3c d4 11 fd bb f0 db 03 3c
       0.007702515 0.01161147 -0.0077230725 0.008048043
0000e0 18 76 ba bb 19 94 0c bc 8e 83 5d 3c c4 2a 82 3c
       -0.0056903474 -0.008580231 0.013520135 0.015889533
0000f0 37 14 e3 3b ba 4b b7 bb ab e6 0f 3b a3 64 b8 3b
       0.0069299 -0.005593744 0.0021957557 0.005627231
000100 4f 68 ec bb 15 66 c3 3a ca 5e 17 3b d6 07 1d bc
       -0.007214583 0.0014907742 0.002309727 -0.009584388
000110 9b 83 28 bb d2 f3 f5 ba 29 c6 22 bc 11 f8 8a 3b
       -0.0025713209 -0.0018764681 -0.00993494 0.0042409976
000120 66 e3 d2 3a 10 a2 ee 3a 9f 4e 46 3c 4e e8 19 bc
       0.0016089499 0.0018206257 0.012103706 -0.009393765
000130 cb 5d ef bb c3 48 50 3a 18 d0 48 bc 39 0e 46 bc
       -0.007304882 0.00079454127 -0.012256645 -0.012088352
000140 1f 3a 83 bc 4a 0d 53 3b de 9b 05 bc 37 8e 28 bc
       -0.016018925 0.0032203966 -0.008154837 -0.010287813
000150 b8 23 68 bc 97 ba 8a ba 78 ef 10 bc 43 a4 82 3c
       -0.014168672 -0.0010584173 -0.008846156 0.015947467
000160 18 95 f8 3b a9 a1 24 bc d5 37 bd bb 9e eb 9e bb
       0.0075861327 -0.010048308 -0.005774478 -0.004849865
000170 0e 1f 02 bc da fd c0 ba 2b 27 0c bc d8 82 a6 3b
       -0.007941974 -0.0014724091 -0.00855426 0.0050815158
000180 7f f4 0e bc 18 5c 8c bb 68 29 22 bc ee b4 93 3c
       -0.008725285 -0.0042834394 -0.009897567 0.01803061
000190 12 dd 40 bc f9 64 67 3b 6a 7b ff bb f6 6e 29 bb
       -0.011771457 0.0035307987 -0.0077966945 -0.0025853491
0001a0 79 69 ea bb 39 fa 8e bb f5 42 5f 3c 6a 9d 65 3b
       -0.0071536866 -0.004363325 0.013626804 0.0035036453
0001b0 cf d5 a6 bb e6 50 ed 3b db a6 55 bc 2e 4b 1c 3c
       -0.005091406 0.00724231 -0.01304027 0.009539409
0001c0 71 cd 0d bc aa 36 2e bc 2a 99 9f bc b2 82 ef ba
       -0.008654938 -0.01063315 -0.019482214 -0.0018273203
0001d0 07 c6 19 bc c7 e5 ca bb e6 1d 06 3c 26 33 c6 bb
       -0.009385592 -0.0061919424 0.008185839 -0.006048578
0001e0 f4 2f 21 3c 96 47 34 3c 56 57 34 bc 80 ab c4 bb
       0.009838093 0.011003396 -0.011007151 -0.0060018897
0001f0 9d 4a a9 bb 5a a5 95 3c 17 e1 d3 bb fb 07 18 bc
       -0.0051663653 0.018267322 -0.006466042 -0.009279246
000200 5c 6c b3 ba 82 7a 89 ba 7e da 59 bb d6 3d 1d bc
       -0.001368891 -0.0010488781 -0.0033241804 -0.009597262
000210 97 9c ab 3b 58 1a d8 3a 27 71 58 bc 08 be 14 3b
       0.005237173 0.0016487343 -0.013210571 0.0022696275
000220 4b ea 16 3c 89 29 bc bb fc 39 88 bb 41 42 80 3b
       0.009211133 -0.005742256 -0.004157303 0.003914148
000230 02 6e 25 3c c9 44 55 bc ac 6d 05 3b e1 fa c4 bb
       0.010097029 -0.013016888 0.002035956 -0.0060113524
000240 ba 50 24 bc e8 8c cb bb 85 de 46 3a 69 23 39 bc
       -0.010029012 -0.0062118657 0.00075862586 -0.011299946
000250 c8 d0 9c bb 76 6b c5 3a bc c5 5f bc 6e ef 0b bc
       -0.004785631 0.0015061933 -0.013657983 -0.008540971
000260 1f d5 3d 3c 8e 2f 08 3c 40 84 32 3b 77 07 17 bc
       0.011586457 0.008312119 0.0027239472 -0.009218088
000270 b8 2c 48 bb a9 81 ec 3b 3e 6d b8 3a 69 1e 43 3c
       -0.0030544233 0.007217605 0.0014070643 0.011909106
000280 5a 20 16 bc 9b 87 37 bc 6a f0 10 ba cc 1e 83 3b
       -0.009162987 -0.011201764 -0.00055289885 0.004001474
000290 89 43 00 bc 5a c9 6d 3c fa 46 23 bb 23 b1 80 3c
       -0.007828602 0.014513338 -0.0024914131 0.015709465
0002a0 bc 47 b3 bb 00 00 00 00 d9 35 0c bc 33 27 02 bc
       -0.005471198 0.0 -0.00855776 -0.007943916
0002b0 f6 65 6a bc 91 42 28 3c 7f 82 7a 3b 71 63 79 bc
       -0.014306536 0.010269777 0.0038224754 -0.015221463
0002c0 d9 f4 5b 3c c3 15 9f ba 2c da 40 bc 39 b6 c4 bb
       0.013425075 -0.0012137223 -0.011770766 -0.006003168
0002d0 b4 b1 44 bb db a9 1d bc 96 19 12 bc 4d 5c ac 3a
       -0.0030013146 -0.009623016 -0.008917233 0.0013150066
0002e0 20 ab b5 bb bd 47 9b 3b f8 9f 82 3a fa 23 4b bb
       -0.0055440813 0.0047387765 0.0009965887 -0.0030996785
0002f0 50 d8 c6 3a 42 51 19 bb 00 75 1b 3c 07 38 c5 bb
       0.0015170667 -0.002339438 0.009488344 -0.006018642
000300 1d db 48 bc e3 e4 60 3b a6 87 0f bc b6 11 49 bb
       -0.012259272 0.0034316115 -0.008760368 -0.0030680723
000310 b2 23 35 b9 84 a5 d4 3b 40 95 a1 bc d2 6e a9 3b
       -0.00017274803 0.0064894576 -0.019724488 0.0051706815
000320 41 74 c4 bb 87 3e c5 bb f6 8b ca bb 21 9d f6 bb
       -0.005995304 -0.0060194167 -0.0061812354 -0.0075260554
000330 6b 6a 7c bb 0c 02 1e bc c5 30 b2 3b 9a d2 22 3a
       -0.0038515578 -0.009644043 0.0054379427 0.00062111916
000340 e0 ed d7 bb 60 e1 2a 3c 97 ba 2a 3c 23 19 47 b9
       -0.006589636 0.01042971 0.010420463 -0.00018987483
000350 b2 11 66 bc ab 96 ed bb db 4a 09 bc 61 a9 98 3b
       -0.014042305 -0.007250627 -0.008379663 0.0046588634
000360 f0 ef f3 bb 4e 1c 23 bc 08 b2 a6 bb e4 9e 9f bb
       -0.0074443743 -0.009955479 -0.005087141 -0.004871236
000370 ab 39 94 3b 90 16 4c 3c 1f d2 ec 3a 12 c0 37 bc
       0.004523476 0.012456551 0.0018067992 -0.011215227
000380 0c 66 08 3b 5d 9a 10 3b f9 5b bd 3b d6 56 36 bc
       0.0020812778 0.0022064664 0.0057787863 -0.011129102
000390 da 0b b6 bb 1f 5b 55 bc 5a 0f 06 bc a8 3c 14 bc
       -0.005555612 -0.013022213 -0.008182371 -0.009047665
0003a0 fe ad c4 bb e8 fc 3c bc fc 44 bb bb f8 16 dd bb
       -0.006002187 -0.011534907 -0.0057150107 -0.006747123
0003b0 c4 55 3a bb 8b 9f 44 bc 2a 99 34 3b 8b 22 2f bc
       -0.0028432468 -0.012000929 0.0027557113 -0.010689388
0003c0 93 bf 8c bb 7d ed c1 3b bd 98 39 bb 3b 82 25 bc
       -0.0042952984 0.0059182034 -0.00283198 -0.01010185
0003d0 33 5c 4f bc 62 d2 c6 3c 5b 73 9d 3b 0c 48 5d bb
       -0.012656259 0.02427024 0.004805011 -0.0033764867
0003e0 ca 71 af 3c fc 3a e0 3a a5 ad e2 3b 56 f7 4e bb
       0.021416564 0.0017107422 0.0069176727 -0.003158053
0003f0 9f a2 10 3c 97 fb ed bb 77 8d ce 3c 19 f3 02 3c
       0.008827834 -0.007262658 0.02521394 0.007992529

arith.constant1 f4 [128]
000000 bb d2 7d 3a c4 56 51 bb d2 72 01 bb eb 7b fb bb
       0.00096825854 -0.0031942585 -0.0019752276 -0.0076746843
000010 16 c1 8a 3b 3e 64 4f 3c 20 f1 c3 3b 72 51 09 bc
       0.0042344434 0.012658177 0.005979672 -0.0083812345
000020 bd 46 2f bc db 6b 04 3c 1d c4 d9 3b eb 85 99 ba
       -0.010698018 0.008082355 0.006645693 -0.0011712884
000030 c7 db 5d 3c 07 af 8d bb 01 22 e9 bb af 5c ac bb
       0.0135411685 -0.0043238434 -0.0071146493 -0.005260072
000040 05 06 0f 3b 1a b6 5c bb e8 08 68 bb 2c bb 0a 3b
       0.0021823656 -0.0033677877 -0.00354057 0.0021168692
000050 44 01 ed ba f7 94 11 3c 59 50 38 bb 86 00 73 ba
       -0.0018082042 0.008885614 -0.0028124063 -0.00092697924
000060 89 58 6a bb 25 73 04 bc c4 92 47 3c 28 c0 2c ba
       -0.0035758337 -0.008084093 0.012180988 -0.0006589913
000070 12 1c 04 3c 90 be 81 bb 6e 28 fe 3a 3a 3b 23 bc
       0.008063333 -0.0039594844 0.0019390711 -0.009962851
000080 65 53 80 bb f1 a6 02 bc 73 b7 23 3c c9 c5 07 bc
       -0.0039161914 -0.007974372 0.009992468 -0.008286902
000090 17 89 d6 bb d6 73 cc bb 7c 68 55 ba 35 25 65 3c
       -0.006547104 -0.0062393947 -0.00081408746 0.013985922
0000a0 3c 6e 25 bb 7c 0f ce 3b a2 54 da bb 51 31 f7 bb
       -0.0025242707 0.006288467 -0.006662921 -0.007543721
0000b0 14 78 ba b9 81 d2 8c ba 86 0d 68 3c 80 1e a1 bb
       -0.0003556615 -0.0010743887 0.0141633805 -0.004916966
0000c0 ca 8f e0 bb 04 fb e8 ba a9 8e 4a bb a0 43 dd 3a
       -0.0068530785 -0.0017775004 -0.0030907786 0.0016881116
0000d0 05 af b0 3b 0e c8 2c 3c ea 1c a5 bb 8c c1 1b 3c
       0.0053919577 0.010545744 -0.005038847 0.009506594
0000e0 e7 95 8e 3b d1 b2 bc 3b ed f2 80 3c df 36 bc bb
       0.004351366 0.0057586213 0.015740836 -0.005743846
0000f0 2c ce 4b 3a 89 6f 1b 3a d5 53 03 3b 1c c2 fc bb
       0.00077745575 0.0005929401 0.0020038981 -0.0077135693
000100 33 47 0b bc fa 6a 29 3c 8a c8 0e bc 14 e1 9b bb
       -0.008500862 0.010340447 -0.008714804 -0.004757056
000110 43 b3 b8 3b 1e da 1f 3b 35 95 62 bc b2 53 b5 bb
       0.005636604 0.0024391483 -0.013829519 -0.005533659
000120 8e c0 22 ba 16 a0 75 bb f8 89 68 b8 ed 5e 7f 39
       -0.00062085025 -0.0037479452 -5.5441604e-05 0.00024354058
000130 7c 17 bf bb ef 6b 69 bb c2 c4 a5 bb 6e 94 1b 3c
       -0.005831657 -0.0035617312 -0.0050588557 0.009495838
000140 3b b5 27 3c e2 18 a3 bb 60 eb 62 3b 2b 8e b6 3b
       0.01023608 -0.0049773315 0.0034625158 0.005571147
000150 35 7e 8d 3a 5b 59 a0 3b ce 9d 9f 3b e9 1a a4 38
       0.0010795059 0.0048934645 0.0048711067 7.825142e-05
000160 a4 e5 c6 3a 53 0e 12 3c d0 df 75 bc 50 75 04 bb
       0.0015174639 0.008914548 -0.015006974 -0.0020211525
000170 9a fc bb bb 5b b2 d2 3b 8a 41 98 3c 50 f6 b4 bb
       -0.0057368996 0.006429953 0.018585939 -0.005522527
000180 90 3c bf 3b 7b bf 22 3c 93 0c 27 bc 99 0b bf bb
       0.005836077 0.009933348 -0.010195869 -0.00583024
000190 70 89 e7 bb 6e 45 0b 3c 7e db 03 bc af ae 1d 3c
       -0.0070659444 0.00850044 -0.0080479365 0.009624167
0001a0 6f 05 dc 3b c1 df f2 3b 53 f7 ab 3a 08 76 9c 3b
       0.006714515 0.0074119275 0.0013119973 0.0047748126
0001b0 97 d0 58 3a e0 04 07 3c 0b d6 83 bb 89 ed 1c 3c
       0.00082708284 0.008240908 -0.0040233186 0.009578117
0001c0 1a 30 ce 3a 43 8e 92 b9 b8 08 91 bb 7a 8e f8 ba
       0.0015730888 -0.00027953283 -0.004426088 -0.001896336
0001d0 99 0e 02 3c 0e f2 04 3c 2d 7b ac bb 2b 96 ac ba
       0.007938051 0.008114351 -0.005263707 -0.0013167312
0001e0 d8 94 b4 3b 36 df 50 ba 53 72 cf ba 05 7f 26 bc
       0.0055109076 -0.00079678313 -0.0015826918 -0.01016212
0001f0 37 1b 35 bb 01 cf ad bb 19 47 c4 bb 10 d1 75 bb
       -0.002763463 -0.005304218 -0.005989921 -0.0037508644

arith.constant2 f4 [64]
000000 ee da 94 ba 6f c3 d9 3b 45 fa 39 3b 28 0f b7 3a
       -0.001135675 0.006645612 0.0028377932 0.0013966309
000010 03 9f 3b 3c d3 cf 3a 3a c5 a4 8d 3b 11 c9 2e 3c
       0.011451486 0.0007126305 0.0043226206 0.010668055
000020 fb 8c 7f 3b 18 3f 06 3c 3a cd 09 3b df 79 ef 3b
       0.0038993943 0.008193754 0.0021026866 0.0073082293
000030 8f 39 0d bb 9e f7 a5 3b 4b ce e1 3a cb 52 8f 3b
       -0.00215492 0.0050649187 0.0017227618 0.0043738834
000040 b3 9b 04 3c e0 09 c7 3b c6 8b 95 3b bb 14 f6 3b
       0.008093762 0.0060741752 0.0045637814 0.0075097955
000050 13 6d 64 3c 78 55 03 3c cc 9b 27 3c b6 43 38 3c
       0.013942021 0.008015983 0.010230016 0.011246612
000060 ec 83 f9 3b b9 ec 07 3c 48 35 62 3a e4 6c a0 3b
       0.0076146033 0.008296185 0.00086291553 0.0048957933
000070 22 cd a3 3a 71 3b bf 3b d4 b8 6b 3c 6f 12 c5 3b
       0.0012497047 0.0058359434 0.014387328 0.0060141603
000080 99 a0 c7 3a cf 9f 8e 3b cf bd 06 3a 67 08 13 3c
       0.0015230357 0.0043525468 0.0005139978 0.008974171
000090 de 87 1a 3c 57 17 39 b9 fb 61 e1 b9 23 0d e5 3b
       0.009431807 -0.0001765167 -0.00042988345 0.0069900914
0000a0 69 a8 9e ba 0d c0 d1 3b f8 d2 ee 3b cc 20 bb 3a
       -0.0012104633 0.006401068 0.007288333 0.0014276742
0000b0 ec 49 88 3b da 09 0b 3c 2a 22 91 3b 71 9a 59 3c
       0.004159203 0.0084862355 0.0044291215 0.013281451
0000c0 8d 15 bc ba 17 2f d6 3b 21 d2 c7 3b 6a 3e d7 3b
       -0.0014349684 0.0065363753 0.0060980474 0.0065687196
0000d0 9c 7a 38 3b 34 61 22 3c 71 2f a5 3b c4 06 8f 3b
       0.0028149253 0.00991087 0.005041056 0.00436482
0000e0 7e c9 a0 3a 32 af e1 b9 f5 5a 3e 3c ba fc 83 3c
       0.0012267081 -0.00043045875 0.0116183655 0.01611172
0000f0 7e 11 c3 ba 14 12 0b 3c 68 6c 96 3a d7 81 22 3c
       -0.0014882532 0.008488197 0.0011476399 0.009918652

arith.constant8 f4 [256, 1, 3, 128]
000000 41 7d 41 bc 52 46 81 3d 38 9d 0a bd b8 02 72 3d
       -0.011809648 0.06312241 -0.03384134 0.059084624
000010 22 e6 5b 3d da 48 84 bd 4e 63 ae bc 0f 78 03 bd
       0.05368627 -0.06459208 -0.021287587 -0.03209692
000020 b5 b2 2c bc 9a a6 43 3d 83 e4 22 3d b3 9a e8 ba
       -0.010540654 0.047766306 0.039768707 -0.0017746299
000030 d3 59 16 3d 2a 31 05 3d 0b 74 46 bd 90 38 33 bd
       0.036706757 0.03251759 -0.04845051 -0.043755114
000040 f8 fe 32 bc ab 3a 53 bd 1a 03 08 bd 93 42 26 3c
       -0.010925047 -0.051569622 -0.033206083 0.0101477085
000050 dc f0 28 3d d0 ed 98 bd 9c 1d 21 3c 3f 8d 36 bc
       0.041245326 -0.07467234 0.00983372 -0.011142074
000060 a8 a1 22 bc ba 33 51 3d fb 4d 08 bd fb 64 04 bc
       -0.009926237 0.05107472 -0.033277493 -0.008080716
000070 72 18 a0 3b dd cc 24 3d 1b a9 f0 3c 49 32 f7 bb
       0.0048857266 0.040234435 0.02937751 -0.0075438363
000080 67 f9 1a bd 75 f7 62 bd bb f1 b5 3b d2 64 1b bd
       -0.037835505 -0.055411775 0.005552498 -0.037937947
000090 7c 75 6c 3b 6e 65 81 bd a4 93 fc bc f4 14 d5 3b
       0.0036080768 -0.06318174 -0.03083212 0.006502742
0000a0 9f e1 ab 3b 77 87 7a 3c 64 f7 40 bc 1a ee 57 bd
       0.005245402 0.015291086 -0.0117777325 -0.052717306
0000b0 63 a0 31 ba 3f fa f6 bc 90 1e ab bc ef f1 2e bd
       -0.00067759136 -0.030148624 -0.020888597 -0.042711195
0000c0 8f 35 29 bd 19 98 35 bd 04 34 02 bd 52 ff d1 bc
       -0.041310843 -0.044334505 -0.031787887 -0.025634442
0000d0 06 fa 8d bd 85 39 09 bd 26 2b d0 3c 00 1f 96 b9
       -0.06932454 -0.03350212 0.0254112 -0.00028633326
0000e0 f0 fa 12 3d 37 3c 8a 3c 5a 5e 27 3b 85 72 d6 3c
       0.035883844 0.016874416 0.0025538416 0.026177654
0000f0 91 f1 6b bd 0e 5e 90 bd f4 c5 37 3d ca 64 a5 bc
       -0.057603423 -0.070491895 0.044866517 -0.020189662
000100 9e 1e 9b bc 09 5f dd 3c 45 6a 60 3d 82 51 b8 ba
       -0.018935498 0.027022855 0.054788847 -0.0014062377
000110 a2 54 79 3d 33 1a 03 3d 6b 67 03 bd 0f 22 78 3d
       0.060871728 0.032007407 -0.03208105 0.060579356
000120 9f dd a1 bc da 0f 21 bd 62 1d ad bc 1a b2 34 bc
       -0.019758997 -0.039321758 -0.021132175 -0.011028791
000130 28 6c 2c 3d a3 38 84 bc 94 ef 33 3d 6d 14 a3 bb
       0.042095333 -0.016140288 0.04392965 -0.0049768
000140 b4 56 76 bd 03 5f a8 bc 57 75 62 bc 64 7c 38 bd
       -0.06014128 -0.020553118 -0.013821921 -0.045040503
000150 f4 ad f0 3c 70 a5 ff bc e7 9d c0 bc ba 8b 7f bd
       0.029379822 -0.031206816 -0.023512794 -0.062389113
000160 b8 73 6f 3d b0 19 f9 3c 88 38 88 3c b0 f5 28 bd
       0.058459967 0.030407757 0.016628519 -0.04124993
000170 73 3d d1 bc 1f 62 75 3d 29 63 20 bd 08 11 58 bd
       -0.025541997 0.05990803 -0.039157066 -0.052750617
000180 c4 f1 16 bd d1 d2 44 bc 0b 07 c8 3c f7 a7 90 bd
       -0.03685166 -0.012013153 0.02441742 -0.07063287
000190 f6 cc 99 bd c8 e5 05 bd 76 1a dc bc 3e de 8b bd
       -0.07509796 -0.03268984 -0.026868086 -0.06829499
0001a0 cc 85 14 bd 31 58 e9 bc 0d 18 4a 3d 76 55 5b bd
       -0.03626041 -0.028484436 0.049339343 -0.0535483
0001b0 58 47 73 3d e0 49 ed bc 80 8e 48 bd cc 9e 0f bd
       0.05939421 -0.02896589 -0.048964024 -0.03506355
0001c0 ae 81 8d bd 7f 31 f8 3b ea 4c 53 3d 90 3c bd bc
       -0.069095 0.00757426 0.051587023 -0.023100168
0001d0 de 38 35 bc e9 db 55 b8 13 ee 4a bd 6a b0 f2 3c
       -0.0110609215 -5.0987965e-05 -0.04954345 0.029625136
0001e0 d4 06 96 bc 56 af 33 bd d4 ee 4a 3d c2 bc 13 3d
       -0.018313803 -0.043868385 0.04954417 0.036068685
0001f0 cd 1c f4 3b a5 2a fe 3c d5 4e 4a bd 7f 1a d3 bc
       0.0074497224 0.031026194 -0.049391586 -0.02576947
000200 d8 41 ca 3c b1 5c 9f bd a3 2f a2 3a b0 33 e8 3b
       0.0246896 -0.07781351 0.0012373816 0.0070862398
000210 bc 9e e3 bc bb 72 92 bc ea 78 ac bc b1 bd 07 bd
       -0.027785651 -0.017876973 -0.02105375 -0.03313989
000220 f7 09 86 3c 80 97 09 bd 70 7f 7c bd 5a ff 74 3d
       0.016362173 -0.033591747 -0.06164497 0.059813835
000230 87 38 91 bc ae 26 50 bd fa 40 76 3d 85 9c 80 bc
       -0.01772715 -0.050818138 0.06012056 -0.015699634
000240 86 bf c9 3c b1 20 63 3d 27 5d 3c bc da cb 98 bd
       0.024627458 0.0554511 -0.011496819 -0.074607566
000250 59 83 db bc 2a ef 5e bd f3 f3 38 bd 33 8e bc bb
       -0.02679603 -0.054427303 -0.045154523 -0.005754256
000260 12 b6 03 3d 01 09 dd 3c fa 1e 66 bd 69 3f 98 bc
       0.032156058 0.026981832 -0.056181885 -0.018584924
000270 8e 7b 16 bd af 9d 1a 3c 06 94 bc bc 35 0b 9a bd
       -0.036738925 0.009437009 -0.023019802 -0.07521669
000280 22 a5 0e 3d d6 7f 39 bd 01 e5 1e 3c ba fe 3f bd
       0.03482545 -0.04528793 0.0096981535 -0.046873786
000290 b7 92 8d bd 79 bf 85 bd f8 4b 34 3d da 9f bf 3c
       -0.06912749 -0.06530661 0.044017762 0.023391653
0002a0 e8 2e 43 bd 93 94 f4 bb 1f f6 09 bd 4f ea 54 3b
       -0.047652155 -0.0074640005 -0.033681985 0.0032488292
0002b0 0d 75 fb bc 20 13 40 3d 0b cc 6b bd 02 df 72 bb
       -0.030695463 0.04689324 -0.057567637 -0.0037059193
0002c0 a2 11 56 3d d8 d1 db 3c 00 f4 58 bd 0a f0 5e 3d
       0.05226291 0.02683346 -0.05296707 0.054428138
0002d0 6b b9 7b bd 08 c5 72 3b 08 c4 9c 3c 12 ef 5b bd
       -0.061456125 0.003704371 0.019136444 -0.053694792
0002e0 be 2d 86 ba 36 d2 69 bc c4 aa 2b 3d 77 c6 29 bd
       -0.0010237021 -0.01427131 0.0419109 -0.041449036
0002f0 8f 37 2b 3c 28 f2 8b 3d 15 f1 0a 3d e2 2d ba bc
       0.010450258 0.06833297 0.03392132 -0.022726957
000300 45 f9 0d 3d bd 2e d7 bc f1 98 2c 3c 66 5d 2a bc
       0.03466155 -0.026267404 0.010534511 -0.0103982445
000310 aa c4 86 3d 1b 95 02 3d 72 ad ef 3c 90 8c 83 bd
       0.065804794 0.03188048 0.02925751 -0.064232945
000320 dd b3 76 3d cb fe 3f 3c da d2 5f bd 80 97 31 bd
       0.060230125 0.011718462 -0.054644443 -0.043357372
000330 8b f5 76 bd 45 e1 d3 3c 59 0e 62 bd 94 7e a2 3c
       -0.06029276 0.025864253 -0.055189464 0.019835748
000340 dd 09 8b bc c4 f6 bb 3b b5 d8 50 bd bd fe 81 bd
       -0.016972477 0.005736204 -0.050987918 -0.063474156
000350 fb d2 2b bd d6 9c 51 bd 22 55 44 3b 1e bf 36 3d
       -0.041949254 -0.05117496 0.002995797 0.044615857
000360 5f c3 50 3d 71 7d b3 bc 78 b6 4b bc e1 3e a1 bc
       0.05096757 -0.021910401 -0.012433641 -0.019683303
000370 9b 7b 43 3d eb cf 8c bd a9 88 9f bd 33 fe 08 bd
       0.0477253 -0.06875595 -0.07789738 -0.03344555
000380 2d ba 67 bd e9 ab 23 3d b9 f5 64 bd 9e 10 5e 3d
       -0.056574035 0.03995887 -0.055898402 0.054215066
000390 41 eb f1 bc b4 49 50 bd 80 65 fd bc 18 c0 f8 3b
       -0.029531123 -0.05085154 -0.030932188 0.0075912587
0003a0 b0 75 70 3c d1 86 f6 bc 8e 8e 19 bd 81 e5 ac 3c
       0.014676496 -0.030093582 -0.037489466 0.02110553
0003b0 af 72 7e bb 96 8c 9e bd b6 74 ca ba a8 c2 a2 3c
       -0.003882568 -0.077416584 -0.001544616 0.01986821
0003c0 83 d5 ea bc ce 00 6a bd a5 96 50 bd a1 94 3d ba
       -0.028666263 -0.057129674 -0.050924916 -0.0007231925
0003d0 96 ae e0 3c 81 49 26 bd 62 ca 36 3d 99 63 51 bd
       0.027426999 -0.040597443 0.0446266 -0.051120374
0003e0 62 ba 86 3d 9a 13 24 bd 4c 12 70 bc 75 aa 3d 3d
       0.065785185 -0.040057756 -0.0146528 0.04630514
0003f0 ff ee d2 bc 9d 67 d0 bc e8 06 f8 bc 05 3b 78 bd
       -0.025748728 -0.025440032 -0.03027673 -0.06060316

arith.constant9 f4 [128, 1, 5, 64]
000000 3f bb 17 bd fb e8 92 bd 61 ef b4 bd 9a 65 80 3d
       -0.037043806 -0.07173344 -0.088347204 0.06269379
000010 6f 4d 05 3d 73 3b e8 3b 5a ca ec 3d 62 37 30 3d
       0.03254455 0.007087165 0.11562033 0.043021567
000020 6b ad f6 bd db 52 a7 bd 8f c0 c3 bb e6 35 a0 bd
       -0.120447956 -0.081701 -0.0059738825 -0.0782278
000030 f6 47 36 bc 46 17 b5 bd fd c7 c8 3d 29 9f 1c bd
       -0.011125555 -0.0884233 0.0980377 -0.038237724
000040 0e 19 14 3d 3c f6 1e bd 62 e1 d1 bd bd a9 93 3c
       0.036156707 -0.038809046 -0.102480665 0.018025273
000050 4e c3 79 3d 48 88 c4 bd ed 56 99 bd c5 b1 ea 3c
       0.060977273 -0.09596306 -0.07487283 0.02864922
000060 59 3b 33 bd ce ba 54 bd 82 df fa bb 09 ac 54 3d
       -0.04375777 -0.051935963 -0.0076560387 0.051921878
000070 8e a9 81 3d 9a 54 68 bc 1b c9 b1 3d e1 e4 55 3d
       0.06331168 -0.014180327 0.08680936 0.05222023
000080 e5 f6 d1 3c c5 dd 8a bd b0 c4 92 bd 7f ba 85 bd
       0.025630424 -0.067805804 -0.071664214 -0.06529712
000090 4b d8 a7 3d b0 c4 42 3d f4 f6 94 bd d2 6d aa bd
       0.081955515 0.047550857 -0.07273665 -0.08321728
0000a0 39 3b b1 3c fb 3f a7 bd fb ba 7f 3d 8f 5e cb 3c
       0.021634685 -0.081665 0.062434178 0.024825362
0000b0 bd 06 c1 bc 23 a6 3a 3d 31 b4 0a 3d a3 a4 fa 3c
       -0.023562783 0.045568597 0.03386325 0.030596083
0000c0 05 c2 cd 3d 18 f5 78 3d 08 25 fe 3c 63 f9 db bc
       0.10046772 0.060780615 0.031023517 -0.026852315
0000d0 20 4e 8f 3d 13 1c b2 bd a1 bd 1b bd 26 5c 2c 3c
       0.06997323 -0.08696761 -0.03802264 0.010520017
0000e0 05 03 67 3d c3 42 66 3c 73 40 09 bb cf 06 98 bd
       0.056399364 0.014054003 -0.0020942956 -0.07423174
0000f0 eb f4 e4 bb 7f 0d 06 bd f3 74 b7 bd 8f 73 a7 bd
       -0.0069872043 -0.032727715 -0.08957853 -0.08176338
000100 fe 4b 95 bc 2e 9a ad bd e5 40 17 bd 9b 2d 48 3d
       -0.018224712 -0.08476673 -0.036927123 0.048871618
000110 d2 b1 1b bd 07 aa ae 3d bb ec 80 3d 7c ff 8a 3c
       -0.03801138 0.08528524 0.06295153 0.016967528
000120 a8 65 76 3c 21 0d 90 3d 43 11 8a 3c a3 7a 2d 3c
       0.015038885 0.07033754 0.016853934 0.010588321
000130 13 84 98 bd 94 5b c5 bd 3f cd d4 3c 4e 3c ef 3c
       -0.07447066 -0.09636608 0.025976775 0.02920356
000140 13 39 bd bd 51 e1 54 bd e5 04 48 3d 52 24 c3 3c
       -0.09239402 -0.05197269 0.048832793 0.02382103
000150 13 4a 9b 3b bb 08 2d bd ce 1e 77 bc eb 52 f8 3b
       0.004739055 -0.042244654 -0.015083028 0.007578244
000160 9d 63 be bd de 0e 48 bd 9f 40 50 3c e1 e3 59 bc
       -0.092963435 -0.048842303 0.012710719 -0.0132989595
000170 2a 2d 9c 3d e5 f8 c4 bc 9c 39 1c 3d 6e 39 44 3c
       0.07625802 -0.024044463 0.038140878 0.011976583
000180 4d ba 1d 3c f8 d2 04 3d e8 d0 67 bc 07 eb 5c 3d
       0.009626937 0.032427758 -0.014148928 0.053935077
000190 6b f8 bf 3d da 33 20 3d 2f 99 b9 3c 4e 10 8b 3c
       0.09373554 0.03911195 0.022656051 0.016975548
0001a0 b2 98 aa 3c be 98 79 bb 44 56 a8 bd 1f a4 05 3d
       0.020824764 -0.0038085426 -0.08219579 0.03262722
0001b0 1f 8e 05 3c c7 9a 18 3d 2a 89 19 3d b7 21 d0 bc
       0.00815156 0.037256982 0.037484325 -0.025406701
0001c0 f6 4d 19 bd 38 fc c5 bc 9f d8 63 bd 08 2a 4f 3d
       -0.037427865 -0.024168119 -0.055626508 0.050577193
0001d0 ad 7f 0e bd ac 85 7d bc 8c d7 8d bd 3c 63 d5 3d
       -0.03478973 -0.015473764 -0.06925878 0.10419318
0001e0 66 12 e3 bc 41 65 22 bc 84 22 29 3d d9 0e 55 3d
       -0.027718734 -0.009911836 0.041292682 0.052016113
0001f0 1e 8d eb 3c 1c ae d6 bd cb 50 4e 3c 02 c9 ab bd
       0.028753813 -0.104824275 0.012592505 -0.083879486
000200 d5 55 ff bc 2a fb 5e bd 55 c4 98 3b 7d d0 c6 bc
       -0.031168858 -0.054438747 0.0046620765 -0.024269337
000210 03 0f a1 bc b7 6c 25 bc ad 5c 86 bd be 95 63 bd
       -0.019660478 -0.01009672 -0.06560645 -0.055562727
000220 94 7d b4 3d ae 39 09 bd 79 8b 09 bd d8 d5 52 3d
       0.088130146 -0.033502273 -0.033580277 0.05147347
000230 44 7c 2e 3d 1f 33 00 3d 1f d7 85 3c d3 ea 8a bd
       0.042598978 0.031298753 0.01633793 -0.067830704
000240 09 49 60 3d f5 8b 54 bd 24 06 48 bd 8f 8d fb 3c
       0.05475715 -0.051891286 -0.04883398 0.030707149
000250 fd 87 93 bd 2f b8 60 bd 47 c4 f2 3d 02 87 18 3d
       -0.07203672 -0.05486315 0.11853843 0.03723813
000260 bf c4 c6 3d bf 21 49 bc dc 8d ec 3c e8 91 26 bd
       0.09705495 -0.012276112 0.028876238 -0.04066649
000270 0a 78 81 3d 96 82 0e 3d f3 14 21 bc 2e 82 19 3d
       0.06321724 0.034792505 -0.009831655 0.037477665
000280 53 80 9c 3d 0c 22 d5 bb 83 68 a3 3d 23 72 1e 3c
       0.076416634 -0.006504303 0.079789184 0.009670767
000290 53 0e 06 3d 91 6a ba 3c 6a b1 28 3c 76 0a 50 3c
       0.032728504 0.022755893 0.010296205 0.012697807
0002a0 77 bf 3d 3d 74 38 05 3c 5c 17 bc 39 db 85 7e 3b
       0.046325173 0.008131135 0.00035875558 0.0038837108
0002b0 9d 06 8a 3c dc e3 b7 bd dd 54 05 3c a1 04 c7 3d
       0.016848857 -0.089790076 0.008137909 0.0971768
0002c0 73 e9 05 bd 85 af 12 3d 6e c6 97 3d 09 61 30 bd
       -0.032693338 0.03581192 0.07410894 -0.04306129
0002d0 25 9b 92 bd e4 f0 9a bc 6d 94 c2 3d 94 ad 71 bd
       -0.07158498 -0.018913694 0.09500966 -0.059003428
0002e0 73 ab 38 3d bf ce 5d 3d db 78 13 3d 4a e6 36 bd
       0.04508538 0.054152247 0.03600393 -0.044653215
0002f0 63 45 6c 3d 77 b9 50 3d fe d4 a4 bc 4b fa 46 bd
       0.05768336 0.050958123 -0.020121094 -0.04857854
000300 ce 19 3d 3d 45 5d 44 bd f9 c6 d9 3d d0 75 84 3d
       0.046167187 -0.04794051 0.10633654 0.064677835
000310 c2 4b 54 3d 9b 57 6a bd 05 01 3d bc 3e 43 85 3d
       0.05183006 -0.057212453 -0.011535888 0.06506966
000320 42 85 df bd 13 12 49 3d 6f 6a 18 bd 40 25 99 bc
       -0.10914089 0.049089503 -0.037210878 -0.01869452
000330 07 b5 37 bd d1 ef 77 3b 6a 10 20 3d 7b 03 94 3c
       -0.044850376 0.003783215 0.039078154 0.018068066
000340 32 7e 28 3d 69 0c 28 bd a8 e0 b2 3d 78 42 c1 bb
       0.041135974 -0.04102746 0.08734256 -0.0058978163
000350 54 53 33 bd fc b9 7a bc 20 3d a7 3d 69 d6 5a bd
       -0.04378064 -0.015303131 0.081659555 -0.053427134
000360 b3 dc 88 bb f6 d9 83 bb bb 00 29 3d cb 41 2d 3d
       -0.0041767 -0.0040237857 0.041260462 0.042299073
000370 d6 b2 43 bd 3a cb 15 bd db 4b 2f 3d 05 03 0e 3d
       -0.047777973 -0.036570765 0.04279695 0.03467085
000380 17 3f 25 3d 0a 0f b7 3d 81 72 aa 3d fa 74 a0 bd
       0.04034337 0.08938415 0.08322621 -0.078348115
000390 7a 47 7e bb 82 16 29 3d 07 11 b8 bd 90 6b 29 bd
       -0.0038799928 0.04128123 -0.08987623 -0.041362345
0003a0 5d c8 84 3d a0 b4 ee 3c 42 6b 01 bd 57 f9 65 bd
       0.06483529 0.029138863 -0.03159643 -0.056145992
0003b0 d0 fc 42 3c dc 19 be bc e4 78 c4 bd 44 e8 7b bb
       0.0119010955 -0.02320569 -0.095933706 -0.0038438002
0003c0 e2 16 be bc b5 f2 97 3d 31 51 00 3d 32 cf cd 3c
       -0.02320427 0.074193396 0.03132743 0.025123212
0003d0 ff 09 2c 3c 50 f2 e9 3c 1d fc d8 bc bd 3f ae 3c
       0.01050043 0.028557926 -0.026487404 0.021270627
0003e0 00 96 f0 bc f7 0e 43 3d 42 8a 6a bc d6 5e 1f 3c
       -0.0293684 0.047621693 -0.01431519 0.0097272005
0003f0 99 f3 e7 3c b6 8f 12 3c fc c8 ac bd 9a dd 19 3a
       0.028314399 0.008945396 -0.08436772 0.0005869508

arith.constant10 f4 [64, 1, 7, 128]
000000 d2 d0 eb 3c 26 61 da bc 13 a6 c9 bc f7 d8 9c 3b
       0.028786097 -0.026657652 -0.024615323 0.0047866064
000010 8d 9a ba 3a fe b4 f1 3c e6 08 6c bc e0 c0 e1 bb
       0.0014236734 0.02950525 -0.014406418 -0.0068894476
000020 a3 47 3c bd 1c c4 a4 bc 19 aa 54 bd 98 b9 85 3b
       -0.045966756 -0.020113043 -0.05192003 0.0040809624
000030 b8 aa 3d 3d 00 d9 a2 3c 38 c6 93 3c 81 c1 8c 3c
       0.04630539 0.019878864 0.018038854 0.017182114
000040 1b 12 07 3d 07 34 c4 bc 94 69 e6 3a e5 6f 33 3d
       0.03297625 -0.02395059 0.0017579072 0.043807883
000050 6e eb 73 bd da a4 24 bd 28 be a7 bd 5a 4c 86 3d
       -0.059550695 -0.040196277 -0.08190566 0.06557532
000060 3e 98 9e bd 2e 32 8e bc be ba 02 3d fd 57 83 3c
       -0.07743882 -0.017357912 0.031916372 0.016033167
000070 d5 ae 76 bd a2 f3 86 bc 7d 4f 5f bd b0 8d 18 bd
       -0.060225327 -0.016473595 -0.054519165 -0.0372445
000080 da 8e 5e bc 87 9c f0 bc 81 4a 15 bd 7d b5 b5 bd
       -0.013583863 -0.029371513 -0.036448006 -0.08872507
000090 5b bd 0e bd 3e d3 5d 3d 11 8b 89 bd f2 9d af bc
       -0.034848552 0.054156534 -0.06715978 -0.021437619
0000a0 5d b8 8a bd d8 e0 16 3d 0c 18 67 3d 10 51 51 3d
       -0.06773446 0.03683552 0.056419417 0.051102698
0000b0 6c 4e ac bc 5f 9c 4a 3c 65 ab 86 3d b3 6a 40 3d
       -0.021033488 0.012366383 0.0657566 0.046976756
0000c0 27 9b ec bb 43 84 15 3d 1b 0b 2f bd fe a0 4e bc
       -0.007220644 0.036503088 -0.0427352 -0.012611626
0000d0 84 09 fc bb 06 43 f8 bc f3 db 00 bc 7b 18 19 bd
       -0.007691564 -0.030305397 -0.00786494 -0.037376862
0000e0 87 6a fb 3c 24 ed fe bc c3 72 31 3d 04 a0 5c 3d
       0.030690445 -0.031118937 0.043322336 0.05386354
0000f0 97 80 c1 ba d0 72 44 bd e6 da fd 3c 52 00 19 bd
       -0.0014763054 -0.047961056 0.030988168 -0.03735382
000100 30 28 2e bd 0a 7e 2a bd da 7a 18 bd 88 51 08 3d
       -0.042518795 -0.041624106 -0.037226535 0.03328088
000110 b5 36 c0 3c 54 e6 6f 3d cf b9 6c 3d 68 db 90 3d
       0.023463586 0.058569267 0.05779439 0.070730984
000120 90 a9 08 3d 1d 97 3c 3d 45 c0 49 3d 5a d4 45 3d
       0.033364832 0.04604255 0.04925563 0.048298217
000130 62 71 67 3d 17 26 c5 bc 28 05 00 3d d2 49 89 3d
       0.056504615 -0.024066014 0.031254917 0.06703533
000140 f3 9e e1 3b 71 fa 6c 3d 43 1e 4e bd b8 66 5f bc
       0.0068854033 0.057856027 -0.05032183 -0.01363533
000150 a7 7c 3f 3d e8 94 10 3b d2 bd 68 3d 44 be c1 bc
       0.046749737 0.0022061411 0.05682165 -0.023650296
000160 db f1 82 3a 76 48 77 3d 70 3b 22 bd 43 a7 2b 3c
       0.0009990291 0.06037184 -0.039607465 0.01047689
000170 61 1b 1a 3d c9 1d 47 3c 88 fb 87 bd 70 c1 05 bc
       0.037623767 0.012153097 -0.06639773 -0.008163795
000180 9a 70 8d bd 9f 30 2a 3d c3 a3 d1 3c 65 77 52 bd
       -0.06906243 0.041550275 0.025590783 -0.051383395
000190 4b ea 6f bd 45 91 b5 bc 31 1b 50 3d 9c cc 91 3c
       -0.05857305 -0.022163996 0.05080718 0.01779776
0001a0 99 ad d1 3d e9 2d 91 bd 7b 4b 5f bd 3e 31 56 3d
       0.10238189 -0.07088835 -0.054515343 0.052293055
0001b0 14 9e 01 3d 11 69 1f bd a1 bc 60 3c 0a ee ad bd
       0.031644896 -0.03891856 0.013716848 -0.08492668
0001c0 4d b4 7a bd c9 1a 34 bb d3 31 20 bb ff b3 e6 3c
       -0.061207104 -0.0027481786 -0.002444376 0.028162
0001d0 b4 51 0b 3d af 67 82 3d ed 83 09 bd c7 05 ac 3b
       0.034013465 0.06367432 -0.03357308 0.005249712
0001e0 c7 b8 5e 3d c2 6b 94 bd 67 a9 92 3d 12 a2 76 bd
       0.054375436 -0.07247116 0.07161217 -0.060213156
0001f0 cc 12 9c 3c 8f 37 26 bd 9f e3 f5 3c e3 d3 47 3b
       0.019051932 -0.04058033 0.030015765 0.0030491285
000200 6c 6e 74 bd 27 0d 92 bc bc 3d 70 3d ab 4a 17 bc
       -0.05967562 -0.017828537 0.058652624 -0.009234111
000210 db ce e0 bb 95 e6 7f 3c 36 a4 ac 3c 89 9e c0 bc
       -0.0068605966 0.01561894 0.021074396 -0.023513095
000220 8c 47 bb bc ec c5 a6 3d 59 8d bb bb 8c 4c 98 bd
       -0.022861265 0.08143219 -0.005723637 -0.07436475
000230 03 7c 90 bd 4b cf 49 bc 97 d1 8f bd 98 55 c5 3c
       -0.07054903 -0.012317489 -0.07022398 0.024088666
000240 35 ca 04 3d 7e 4b 84 bb 86 e7 c7 bc 08 f9 10 3d
       0.032419402 -0.0040373197 -0.024402391 0.035393745
000250 4f 4f 72 bd a1 07 46 3d 89 dc 0d bd 9d e4 4a 3d
       -0.059157666 0.04834712 -0.034634147 0.04953443
000260 67 02 b3 bd 18 02 f1 bc bc 9c 1d 3d 39 f3 45 bd
       -0.087406926 -0.029419944 0.03847955 -0.04832766
000270 e3 4e 89 3c cc 7d 56 bd da 35 b6 3b db 73 e0 3d
       0.016761249 -0.052366063 0.005560619 0.10959598
000280 2f 55 d8 3c bf 69 bd bd 38 dd 72 bd 87 b7 21 3d
       0.026407806 -0.09248685 -0.059293002 0.039481666
000290 14 db 2c 3d 72 bf 96 bd c3 d7 45 bb c3 60 af 3d
       0.042201117 -0.07360734 -0.0030188418 0.08563378
0002a0 c0 7c a8 bc 7e 50 82 bd a0 d9 3b bd 3d d3 3e bc
       -0.020567298 -0.06363009 -0.04586184 -0.011647043
0002b0 b4 1e f0 bc 8d 35 96 bc f1 83 bb 3d 6d f2 8c 3d
       -0.029311515 -0.018336082 0.09156025 0.068821765
0002c0 6c da 20 3d a5 7e a5 bd 2a 7f b9 3c cb e3 c3 bc
       0.039270803 -0.08080796 0.022643644 -0.023912331
0002d0 23 9f 7d 3d fd a4 0b 3d ac 6b 32 bd e7 69 bb 3c
       0.061919343 0.034092892 -0.043559715 0.022877647
0002e0 c8 8a 06 bc 62 ea bd bd 22 a9 02 3b 2c 9a 9a 3d
       -0.008211799 -0.092732206 0.0019937237 0.07548937
0002f0 ae 36 28 3d c7 14 6c 3d 68 e7 63 3d ad 77 2f bd
       0.04106777 0.057637002 0.055640608 -0.04283874
000300 54 3c a9 3c 8e fb 44 3d 6f d8 69 3a 5d 16 a3 3d
       0.02065865 0.048091464 0.0008920496 0.0796325
000310 45 5e 1f 3d 20 6b b2 bb 1b d5 93 bc f3 b3 44 bd
       0.03890826 -0.005444899 -0.018045953 -0.048023175
000320 a1 22 9d bc 35 b1 59 bc bd 64 61 bd b8 d2 c4 bc
       -0.019181551 -0.013286878 -0.055027712 -0.02402626
000330 d2 b4 0a 3d ec e2 07 bd 82 30 98 bd e0 fe 2e bc
       0.03386385 -0.033175394 -0.07431127 -0.010680884
000340 1c 9a b6 3b e0 4f 08 3c 2f 61 62 bd ec 4b 54 bc
       0.0055725705 0.008319825 -0.055268463 -0.012957554
000350 7b 67 41 3c 19 d5 90 bc 04 7e 16 bc b6 30 9b bc
       0.011804457 -0.017679738 -0.009185318 -0.018944126
000360 e2 cb 25 bd 55 11 25 3d 4b bb 9e bc 4f 8a 68 3d
       -0.04047764 0.040299732 -0.019376418 0.056772526
000370 54 7f 9b 3c 42 56 83 bd 0b 95 59 bd d5 0b de bc
       0.018981613 -0.06412937 -0.053120654 -0.027105251
000380 84 c1 e2 bc 08 64 7a 3c 86 4b 81 3c b2 77 8d 3d
       -0.027680166 0.015282638 0.015783083 0.06907596
000390 db a5 3e b9 0c 95 52 bd 5a 16 23 bd 65 3d 94 3c
       -0.00018181598 -0.051411673 -0.039816238 0.018095681
0003a0 3e 25 08 bd a4 d0 14 3d 5a f4 9d 3d 07 29 e3 bb
       -0.033238642 0.036331788 0.07712622 -0.006932381
0003b0 35 f3 07 3d 84 1b 55 bd ed 37 3d 3d 07 bc 0d 3d
       0.033190925 -0.052028194 0.046195913 0.034603145
0003c0 4b e0 62 3d 08 c7 cc ba 49 6f ff bc fa cf 52 3b
       0.055389684 -0.0015623281 -0.031180995 0.003216742
0003d0 27 aa b8 3c fa f2 50 bb e7 c3 7b 3d c1 bf 3f bd
       0.022542072 -0.0031883107 0.061466124 -0.04681373
0003e0 d8 08 c7 bc 26 7a ec bc ec cd 23 3d 8a bd 08 bd
       -0.02429621 -0.028866839 0.039991304 -0.033383884
0003f0 59 c6 7e 3d bd 7b b4 38 34 3b 5d bd c8 09 75 3d
       0.062200878 8.606117e-05 -0.05401154 0.05982378

arith.constant11 f4 [3, 128]
000000 5a 52 28 3e 75 ac 03 3e 9e 61 03 be 00 8c 68 bc
       0.16437665 0.12858756 -0.12830207 -0.014193535
000010 a0 ae 5b bd 43 27 88 3d c0 bc 70 be 04 ab 1f 3d
       -0.053633332 0.066481136 -0.23509502 0.038981453
000020 00 b0 a1 b8 44 05 5e be 0d 96 52 3e 43 3c 50 3e
       -7.709861e-05 -0.21681696 0.20565052 0.20335488
000030 b6 4f 6a be a4 b0 2b 3e db 8a 44 bd 4d 3c 35 bd
       -0.2288197 0.16766602 -0.047983985 -0.04424696
000040 6b 76 52 3e 45 a9 65 be 48 37 30 3e b3 76 d4 bd
       0.20552985 -0.22427852 0.17208588 -0.103742026
000050 ea 30 d1 bd e4 a3 89 3e 31 18 9a bd 08 70 ae bd
       -0.10214408 0.2688285 -0.075241454 -0.08517462
000060 e4 42 b8 3d fd c1 22 be 94 4f 5c bd dd 65 94 3d
       0.089971334 -0.15894313 -0.05378683 0.072459914
000070 37 00 44 be 61 65 41 be c9 58 56 be ab d5 91 bd
       -0.19140707 -0.18886329 -0.20932306 -0.07120832
000080 28 7b 24 be 5e 6b cb bd c2 89 0d be f2 f0 38 3e
       -0.16062605 -0.09932588 -0.13822082 0.18060663
000090 58 0b 6c be 58 7d bf 3c 42 2c 1b 3d 60 93 52 be
       -0.23051202 0.023375198 0.037884004 -0.20564032
0000a0 f6 89 ce 3c 43 a0 2b be 0b 46 1a bd 64 d8 73 be
       0.02521227 -0.16760354 -0.037664454 -0.23813015
0000b0 2f 96 57 bd 07 46 32 be 73 eb 2a be d4 4c e3 bc
       -0.05263346 -0.17409526 -0.16691379 -0.027746595
0000c0 86 63 ab bd 5f 7b 45 3e 68 65 12 3d 81 89 09 be
       -0.08368592 0.19285344 0.03574124 -0.1343136
0000d0 99 d7 d1 bd 76 f3 66 3d cf e2 13 3d 86 19 37 be
       -0.102462 0.056384526 0.036104973 -0.1788083
0000e0 90 60 38 be be bd aa 3e bd 9b fa bd 0b a9 03 3e
       -0.18005586 0.33347887 -0.12236736 0.12857454
0000f0 9e 9a 16 be 93 14 ad 3d 5d cd 4c 3e 0c ec 7a be
       -0.1470742 0.0845119 0.20000215 -0.24504107
000100 85 60 65 3e 91 f1 b1 bc 42 a8 bf 3c ab 4a 8a bd
       0.224001 -0.021721633 0.023395661 -0.06752523
000110 1f 7c 96 3d a4 e6 04 bd 79 1a bd 3d 18 cd f6 3c
       0.07347893 -0.03244652 0.09233565 0.030127093
000120 f0 a0 2c be c0 ef 8e bb 02 32 3c 3e ae f0 6c 3d
       -0.16858268 -0.0043620765 0.18378451 0.057846718
000130 4a 0c 6f 3e e8 51 38 be ac 76 22 bd da 64 2d 3e
       0.23344532 -0.17999995 -0.039663956 0.16933003
000140 ff d1 27 be de 59 b3 3d 99 26 bf 3d 70 2e 93 3d
       -0.16388701 0.08757375 0.09333534 0.071865916
000150 34 b6 d5 bc f8 43 f9 bd 29 2b 2b 3e 37 17 b6 bc
       -0.026087858 -0.12171167 0.16715683 -0.022227867
000160 e4 7f b3 bd 38 e8 ca bd f8 5b 4a 3e 30 f6 2f bd
       -0.087646276 -0.099075735 0.19761646 -0.042959392
000170 f4 15 a6 3c db 18 6d bd 89 96 9e be 4b d3 87 bd
       0.02027414 -0.057885032 -0.30974224 -0.06632098
000180 e1 a8 1a 3d 10 f3 42 3e 8c d0 a8 bd 88 8d 5c bd
       0.03775871 0.19038033 -0.08242902 -0.053845912
000190 6b cb 1c 3c 91 01 32 be cd 4b 7d be e6 7b cb 3d
       0.009569983 -0.1738341 -0.24735947 0.09935741
0001a0 de 4e 2f be d7 43 d1 3c 75 e7 29 3d b4 ed 39 3e
       -0.17119929 0.025545044 0.0414805 0.18157083
0001b0 26 c9 c0 bd b9 18 6f 3e 2e 66 9a 3d af 21 08 3e
       -0.09413366 0.23349275 0.075390205 0.132941
0001c0 21 a5 01 be 22 b2 91 bd d1 d3 19 be d4 5d 38 3d
       -0.12660648 -0.07114054 -0.15022208 0.045011356
0001d0 df 97 81 3d ea 25 83 bd 11 53 c4 bc 14 c6 7d bd
       0.06327795 -0.06403716 -0.02396539 -0.06195648
0001e0 cf 0f d1 3d 0b 87 0b 3e 38 17 23 3e 64 10 fc bd
       0.102080934 0.13625734 0.15926826 -0.12307814
0001f0 fd 82 42 be 11 d6 63 3e ea 56 86 be 51 20 8a 3b
       -0.1899528 0.22249629 -0.26238185 0.004215278
000200 4d 45 22 be ad 1f 86 bd 6c 07 d3 bd ae 6d d9 3d
       -0.15846749 -0.065490104 -0.1030415 0.10616623
000210 14 e7 46 3d 0c b6 51 3e 92 c8 0d 3e ce 19 36 be
       0.048560217 0.20479602 0.13846043 -0.17783281
000220 a4 62 e4 bd 09 1b e4 bd 8e 0d 46 be c1 1e 0f be
       -0.11151627 -0.11137969 -0.19341108 -0.13976575
000230 ea bc 4c 3e 25 b2 64 be 92 8a 18 be 3a 1b 86 bd
       0.1999394 -0.22333582 -0.1489661 -0.06548162
000240 a6 f4 e0 3d 9d 72 59 be f2 b0 95 3d 7c 5d b9 3d
       0.10984163 -0.21235128 0.0730914 0.09051034
000250 09 2f 41 be 89 80 84 be 47 ac c0 bb 74 6a 4d 3e
       -0.18865599 -0.25879315 -0.005879912 0.2006014
000260 c1 8d 17 be 75 9f bf bd f9 16 70 3e 59 b0 13 3e
       -0.14800169 -0.09356586 0.23446263 0.1442274
000270 3c 4e 6d 3d 57 6b fa 3d 11 e3 20 3e c4 ff 37 be
       0.05793594 0.12227505 0.15711619 -0.1796866
000280 1b 35 9a bd 0f 5a 64 be 3d 1e 11 3d 57 60 36 be
       -0.0752966 -0.2229998 0.035429228 -0.17810188
000290 64 85 97 3d e9 3e 4f be 7a 7c 16 3e 95 d8 15 be
       0.07398489 -0.20238842 0.14695922 -0.146334
0002a0 04 bb 8e 3d 2c a9 5e be 4a fb 3f 3d a0 85 23 3e
       0.06969264 -0.21744221 0.046870507 0.15968943
0002b0 4b 65 83 be 20 51 36 3e 20 6a 71 3e 06 53 c5 3d
       -0.25663218 0.17804384 0.2357564 0.09634976
0002c0 05 80 45 3e 2e 24 18 be 3d e1 6e be 79 56 a9 3c
       0.19287117 -0.14857551 -0.23328109 0.020671116
0002d0 3e c4 0c bd 80 20 cf bd fe ba 1f be 0a c5 b9 bd
       -0.03436684 -0.10113621 -0.15598676 -0.09070785
0002e0 9c 73 f5 38 d9 a6 aa 3d a7 56 05 bc 65 bd 23 3e
       0.00011704044 0.08332605 -0.008138335 0.15990217
0002f0 00 66 50 3e 5d 4b 01 be b3 04 7a 3d 03 d2 5c 3e
       0.2035141 -0.12626405 0.061039638 0.21564488
000300 a3 4f b1 3d f4 f7 b3 3d fb dc 3f be 1c e0 bc bd
       0.086577676 0.08787528 -0.18736641 -0.09222433
000310 b8 63 f9 3d 7f f8 f8 bd 51 a7 38 be 6c 35 1f bd
       0.12177223 -0.12156772 -0.18032576 -0.038869306
000320 d4 82 47 be 3c ef 45 3e 8d 21 42 be ce 6a 30 be
       -0.194835 0.19329542 -0.18958111 -0.17228243
000330 ab d0 2b be 31 98 3b 3e 2e c9 c3 bd 0f 45 4e be
       -0.1677882 0.18319775 -0.09559856 -0.20143531
000340 66 4a 46 3c f7 02 e5 bd b6 29 7a be 47 58 29 be
       0.012102699 -0.11182206 -0.24429974 -0.16537581
000350 ff d1 9d 3d c0 a5 1d 3e 59 36 1f be c4 37 c3 bd
       0.07706069 0.1539526 -0.15548076 -0.09532121
000360 bb d7 0c be 92 12 39 3e dc d9 4f 3e 99 59 07 3e
       -0.1375417 0.1807349 0.2029795 0.13217773
000370 7d b1 d0 3c bb a9 6b bc 57 20 b9 bd 90 0b dd bd
       0.025475258 -0.014383729 -0.090393715 -0.10793221
000380 48 8b e0 bd 26 8a ff 3d e2 44 b9 bd c2 8d 9d 3d
       -0.10964066 0.124775216 -0.090463415 0.07693054
000390 b1 c2 2c be b5 2c e1 3d d6 13 07 be a0 c9 3c bd
       -0.16871144 0.10994855 -0.1319116 -0.046090722
0003a0 06 75 03 be e9 15 99 bd 8d 57 90 3d b3 70 61 3e
       -0.1283761 -0.07474882 0.07047949 0.22015648
0003b0 a2 e4 3c be a4 a3 51 be 6e cd c0 3c 08 a6 5d be
       -0.18446591 -0.2047258 0.023535457 -0.21645367
0003c0 ee 69 85 3d ee 06 f7 bc 3b 06 c3 3d e5 4c 2c 3d
       0.06514345 -0.030154672 0.09522673 0.04206552
0003d0 ff f4 82 bd 1c 65 25 bd 71 97 97 3d cf db 35 3e
       -0.063943855 -0.04037963 0.07401932 0.17759632
0003e0 e6 a1 75 3d 42 b6 67 3e de 50 2c bd 80 a5 91 bd
       0.05996885 0.2262812 -0.04206931 -0.07111645
0003f0 bb 83 36 3e f3 b9 65 be 12 eb 27 3e 8c 9e 2c bd
       0.17823689 -0.22434215 0.16398266 -0.04214339

arith.constant12 f4 [128, 256]
000000 70 c8 cd 3d 2a 52 07 3e 02 e7 9d 3d fb e3 b4 bd
       0.10047996 0.13214937 0.07710077 -0.08832546
000010 bc 66 a1 bd e0 1a 68 bc 8f d4 4c 3c a3 8e b8 3d
       -0.07880923 -0.014166564 0.01250185 0.09011581
000020 f2 1f 01 3e a7 6c cf bd c3 70 11 3d 74 d6 e8 3d
       0.12609842 -0.10128146 0.03550793 0.11369029
000030 8b b9 8e 3d f4 9c 16 be 4c c4 2e b9 cd c8 9f 3c
       0.06968983 -0.1470831 -0.0001666706 0.019504929
000040 d0 47 96 bd 59 16 1d 3d cf 16 b2 3d c4 60 0a bc
       -0.07337916 0.03835139 0.08695757 -0.008445922
000050 47 1d 74 bd 33 4d c4 bc 2a 78 59 bd 6e 4b e4 3b
       -0.059598234 -0.023962593 -0.053093113 0.0069669997
000060 18 39 82 3d a8 e8 53 3b 64 f7 40 bd 29 9d 7e bd
       0.06358546 0.003233472 -0.04711093 -0.0621616
000070 6f d5 b6 3d e5 4e ea bd c4 dc 6e bd 6d b7 fc 3d
       0.08927428 -0.11440829 -0.058316007 0.12339673
000080 b4 38 5b 3d b0 57 9e 3c 29 05 8f bd 4c f4 55 3d
       0.053520873 0.019328922 -0.06983406 0.052234933
000090 08 b3 ac bd 38 cf b2 bb 97 f2 6b 3d 5c 09 ba 3d
       -0.08432585 -0.0054568313 0.0576044 0.090838164
0000a0 a1 d9 c7 bc ec b0 b0 bd 86 3e b7 3d 53 f1 e8 bd
       -0.024395766 -0.08627495 0.08947472 -0.11374154
0000b0 58 56 c5 3d 7e 36 bc bc 95 1d 2c bd 40 73 01 be
       0.096356094 -0.022975203 -0.0420204 -0.1264162
0000c0 d0 58 25 bd 5c f0 8c 3d e1 04 6a bd ea 45 de bd
       -0.0403679 0.068817824 -0.05713356 -0.10853179
0000d0 29 ef b8 bd 58 be 87 3d 49 9f aa bd 78 59 ed bd
       -0.09029991 0.06628102 -0.083311625 -0.115893304
0000e0 0c bd 6d 3d 18 77 9b bd 41 54 c2 3c ca b7 dd 3d
       0.058041617 -0.07591075 0.023721816 0.108260706
0000f0 e3 b9 04 be 5a cf 58 bc c8 fd cb 3d ed 41 54 bc
       -0.12961535 -0.01323303 0.09960514 -0.012955171
000100 4a f3 e3 3d 40 05 ce 3c 4b 55 73 bd a9 1d a3 bd
       0.11130388 0.025148988 -0.059407514 -0.079646416
000110 69 fa 85 3a 4d 50 be 3d 25 00 a3 3d ec ad 51 3d
       0.0010221723 0.0929266 0.07959012 0.051191255
000120 9a 2a aa 3d 7c a6 70 bd 9e 5c cb 3d 40 25 d3 3b
       0.08308907 -0.058752522 0.09929775 0.0064436495
000130 8a c4 82 3d 0e d4 e2 bd 3f 6e 78 3d b9 49 9c bd
       0.06385143 -0.110756025 0.060652014 -0.07631249
000140 32 c8 73 3d 42 bc 7d bc ef da 73 bd 60 c2 39 bc
       0.059517093 -0.015486779 -0.059534963 -0.0113378465
000150 15 6e ea bd ac 4d d4 3d f7 23 1e 3c 7d 6a 1b 3e
       -0.11446778 0.10366377 0.009652129 0.15177341
000160 26 82 0b 3e a9 a0 99 3d a0 c2 ac bd b4 91 d9 bd
       0.13623866 0.075013466 -0.08435559 -0.10623494
000170 a1 df da bc 24 a3 fb bd 54 bf ea 3d aa 74 c3 bd
       -0.026717963 -0.12286976 0.11462274 -0.09543736
000180 18 f5 89 bd 42 cf 09 be 28 36 92 bd 47 48 d1 3d
       -0.06736201 -0.13457969 -0.07139236 0.10218864
000190 ac fd b2 bd e3 5b 29 bd 80 a9 c3 3c d1 f1 6a bd
       -0.0873979 -0.041347396 0.023884535 -0.05735952
0001a0 bb ae f8 bd d9 8e 7d bd 2c ea 83 bd 8f f6 f0 3c
       -0.12142702 -0.06190381 -0.06441149 0.029414443
0001b0 0a da 06 be 52 70 17 3d 27 b2 c3 3d 44 75 02 3d
       -0.13169113 0.03697235 0.09555464 0.031850114
0001c0 d0 37 c0 3d 18 65 4d 3d e7 16 29 bd 66 7b a7 3d
       0.093856454 0.05014524 -0.041281607 0.08177833
0001d0 12 c0 87 3d 0d 55 56 3c 88 49 db 3d f7 8a 08 bd
       0.066284314 0.013081801 0.10707384 -0.033335652
0001e0 ec ce 91 bd 47 86 d6 3d dc ba c8 3d e8 3c e3 bd
       -0.07119545 0.1047483 0.098012656 -0.11095601
0001f0 1b d9 a8 bd 37 b6 cf 3c 95 19 d8 bd 2c 2a 9e bd
       -0.082445346 0.025355441 -0.105517544 -0.077228874
000200 d3 ac aa 3d 12 52 85 3d 7f 44 b4 3d 2e 1e fa 3d
       0.08333745 0.06509794 0.08802127 0.122127876
000210 64 d7 fe 3d bd ee c8 3d a6 a9 eb 3c e7 d0 c1 3d
       0.12443426 0.09811161 0.028767418 0.09463673
000220 1e 4c 97 bd cd 72 06 bd ac 6b 37 3c 96 8c 43 3d
       -0.07387565 -0.032824326 0.011195105 0.047741495
000230 bd 1a 17 3b 78 75 b7 bd 6f 98 44 bc 87 5e 60 3d
       0.0023056709 -0.08957952 -0.011999234 0.05477765
000240 50 ad 50 bd 4e e4 ca bd 1f 20 82 3d c8 06 d1 bd
       -0.050946534 -0.09906827 0.06353783 -0.102063715
000250 af b7 c6 3d 4c 38 ac 3d 35 41 da 3c d2 79 33 3c
       0.097030036 0.08409175 0.026642421 0.010954337
000260 e9 ab ce 3d 66 00 0d 3e b5 7a 55 bc 5e c0 2b 3d
       0.10091383 0.13769683 -0.013029744 0.041931503
000270 2d 86 13 bd c9 d1 bc 3b cd da 39 3c 36 15 07 be
       -0.036016632 0.005762313 0.01134367 -0.13191685
000280 ed fe bd bd 1a fb 9c 3c cd 7f 9a 3d db 79 14 3e
       -0.09277139 0.019162703 0.07543907 0.14499609
000290 3b 1c 52 3d 8e 70 eb 3d 95 cc bb 3c 9c 10 96 3d
       0.051296454 0.114960775 0.0229247 0.07327387
0002a0 77 a6 26 3d 0c ba ed bd c6 27 fe 3c a8 3b 48 bd
       0.040686097 -0.11607751 0.031024825 -0.048885018
0002b0 54 a3 b2 bd 8a 38 5c bc 29 c5 c7 3d d1 e1 35 bd
       -0.087225586 -0.013441214 0.09754402 -0.04440481
0002c0 df fb 86 3c 01 4f 59 3d b9 34 16 3e 54 25 c7 bd
       0.016477523 0.05305386 0.1466855 -0.09723917
0002d0 f4 ea d3 bd d0 2e d4 bc 1c 75 81 bd 14 97 93 3d
       -0.10347548 -0.025901228 -0.06321165 0.0720655
0002e0 3c cf bc bd b1 90 e7 3c c6 d7 81 3d 66 85 4e bd
       -0.09219214 0.028267236 0.06339984 -0.050420187
0002f0 88 a3 04 be 88 de 77 3c 89 d1 f8 3c 99 3d af 3c
       -0.12953007 0.015128739 0.030373352 0.021391677
000300 85 2d e3 bb a9 e8 f4 3d 93 db 62 bd 66 5b 80 bd
       -0.0069329166 0.11958439 -0.055385184 -0.06267433
000310 cc ef 7b bd 00 37 d8 bc 8c e9 f2 bd 0e 47 9d bc
       -0.061507985 -0.026393414 -0.11860952 -0.01919892
000320 88 30 c6 3d 26 6c e0 bd e8 fe 77 bd f5 d2 a6 3d
       0.09677225 -0.10958128 -0.060545832 0.081457056
000330 c3 e5 de bd 9f 13 88 3d f9 fc 27 be de a2 a9 bd
       -0.10883667 0.066443674 -0.16405095 -0.082830176
000340 ec 0c 8e bc cd de ee 3b 6c e5 5a bd 06 80 10 bd
       -0.017340146 0.0072897435 -0.05344145 -0.035278343
000350 d6 ee f9 bc 33 50 a3 bd 20 53 31 3c a6 14 89 3d
       -0.030509394 -0.07974281 0.010823041 0.066933915
000360 1d 3a e7 3d c1 7a 7e bc e9 24 e0 bd 26 4e 7d 3d
       0.11290381 -0.0155321965 -0.1094454 0.061842106
000370 b8 94 91 bd bc dc ed bd fa 63 d9 bc c7 1b c4 bc
       -0.07108444 -0.11614367 -0.02653693 -0.023939027
000380 70 db 15 bd c6 37 bd bd f3 fd d4 3d 08 ff 7b 3d
       -0.036586225 -0.092391536 0.103999995 0.061522514
000390 44 c7 f6 bd 88 41 11 be 38 08 f3 bd 25 1a 0a bd
       -0.12049726 -0.14185154 -0.11866802 -0.03371634
0003a0 f8 99 4b 3d a0 b0 24 3d 5e 37 b3 bd 00 96 1d 3d
       0.049707383 0.040207505 -0.08750795 0.03847313
0003b0 e6 f8 a8 bd 98 23 1f bd 87 b0 4a 3d b4 77 e0 bd
       -0.082505986 -0.038852304 0.049484756 -0.109603316
0003c0 74 d5 8e bd 38 58 a1 bc 3d 9d 71 bd 94 9e ad bd
       -0.06974307 -0.019695386 -0.058987845 -0.08477512
0003d0 79 47 db bd 75 2d 04 bd ea bd 11 3d 3c a3 ee bc
       -0.10706992 -0.032269914 0.035581507 -0.02913057
0003e0 a1 cd 58 3b c9 78 13 be 0a e6 0e bc d6 a3 04 3d
       0.0033081549 -0.14401545 -0.008721838 0.03238281
0003f0 2e 5d e2 3c 43 79 b2 3d d3 2a 90 3d ed 24 42 3d
       0.027632322 0.08714535 0.07039418 0.047398496
